mnist_model.pt (torch_old, 58135 bytes, 8 tensors)

conv1.weight f4 [8, 1, 3, 3]
0.43866095 0.17375112 0.11997297 0.48849934 -0.005144966 0.3640782 -0.07457736 0.13411537
0.15267576 0.02935518 0.19959906 0.035022262 0.43906918 0.17973731 0.13787377 0.13750245
0.1796839 0.3202975 0.44796225 0.27888942 -0.004452077 -0.12057615 0.058925923 0.09875811
0.005285964 0.22218329 0.5156294 0.2953583 -0.07260023 0.28422844 0.08789461 0.3503558
0.31213737 -0.5201615 -0.53636676 -0.2504667 0.4246209 0.08840565 0.31308764 0.07991402
0.5781491 0.18561028 0.24478763 -0.053348653 -0.029544711 -0.003480318 -0.45685792 -0.17294236
-0.454772 -0.46144342 -0.7164848 -0.38839236 -0.11941374 -0.2956416 0.5108778 0.49508253
0.093048535 -0.03277841 0.2811371 0.18650024 -0.20964912 0.19804908 0.28087863 0.36436978
-0.057875443 0.04805206 -0.2449033 -0.2195111 -0.5777757 -0.6283072 -0.35477883 -0.35693356
00000000: 2b98 e03e d0eb 313e 63b4 f53d 961c fa3e
00000010: 1a97 a8bb 7568 ba3e 04bc 98bd 8a55 093e
00000020: 0957 1c3e 467a f03c b263 4c3e 8173 0f3d
00000030: adcd e03e 0f0d 383e c82e 0d3e 71cd 0c3e
00000040: 0eff 373e 09fe a33e 4f5b e53e 98ca 8e3e
00000050: bbe2 91bb a1f0 f6bd 4f5c 713d b141 ca3d
00000060: e135 ad3b 0484 633e 4a00 043f 3439 973e
00000070: 6eaf 94bd 6486 913e 1702 b43d d661 b33e
00000080: 78d0 9f3e 4e29 05bf 554f 09bf 2c3d 80be
00000090: e967 d93e 050e b53d 064d a03e f6a9 a33d
000000a0: 9401 143f 9f10 3e3e 9ca9 7a3e 1e84 5abd
000000b0: c007 f2bc 0c16 64bb 48e9 e9be cd17 31be
000000c0: e0d7 e8be 5042 ecbe 8c6b 37bf 5ddb c6be
000000d0: 318f f4bd 565e 97be e3c8 023f 757b fd3e
000000e0: 3b90 be3d a742 06bd 34f1 8f3e ebf9 3e3e
000000f0: 42ae 56be 61cd 4a3e 53cf 8f3e ad8e ba3e
00000100: cd0e 6dbd 3dd2 443d eec7 7abe 85c7 60be
00000110: 1ce9 13bf bed8 20bf 92a5 b5be ffbf b6be

conv1.bias f4 [8]
0.33517203 0.30285153 0.4106024 -0.021823294 0.3144099 0.7110028 -0.04688721 0.6289302
00000000: ab9b ab3e 5b0f 9b3e 7a3a d23e c4c6 b2bc
00000010: 56fa a03e 4804 363f ce0c 40bd 9201 213f

conv2.weight f4 [8, 8, 3, 3]
0.07798217 0.010448685 0.19393462 0.111067235 0.035394702 0.029964803 -0.19017948 -0.16262889
-0.14338602 0.12302302 0.08998215 0.1275805 0.048945636 -0.051917024 0.042436257 -0.24355498
-0.091505185 -0.10008448 0.06265549 0.03639153 0.16816449 0.12040701 0.115719184 0.03998876
-0.15537718 -0.29404426 -0.11849454 -0.0761267 0.18732956 0.012844306 0.160585 0.16121483
0.21737732 -0.01471019 -0.088303454 -0.08180899 0.11203907 0.0715743 0.019965976 -0.043733742
-0.01869752 0.20703694 -0.036133736 -0.19677818 -0.15824053 -0.20027356 -0.26888382 -0.18079883
0.09776346 0.16281484 -0.16822109 0.117887475 0.2161324 0.25198805 0.049779423 0.06599022
0.1579718 0.1088498 -0.060267054 0.039227568 -0.17803329 -0.08208156 -0.1580588 -0.16633496
-0.10825172 -0.24019574 0.12014056 0.14434153 -0.007359999 0.13048153 0.023384731 0.13618235
-0.10390374 -0.008495723 -0.0037530754 -0.10410186 0.016329125 0.115818225 0.06923269 0.04737802
0.081494175 -0.09319657 -0.069148295 0.055473454 -0.06107323 0.09067871 0.04419425 0.008131087
0.058626134 0.1214118 -0.23878656 -0.079036824 0.0060543763 -0.06378114 0.11936099 0.15783678
0.10495528 0.09356702 0.041434515 0.002204577 -0.091531694 -0.26504782 -0.041936208 0.05536843
-0.09712996 0.17892896 -0.09063121 -0.13954596 -0.06263758 -0.1425579 0.05909134 -0.028685313
-0.010774174 0.11866698 0.07505351 -0.049524404 0.15707874 0.24517924 0.21828207 -0.097542845
0.088869154 -0.122382686 -0.025700003 -0.0046758726 -0.08114653 -0.2286668 -0.097891085 -0.072099775
0.0011502749 -0.02900558 0.003866052 0.07856847 -0.04324626 0.13947272 0.10177562 0.2436642
0.1865677 -0.1462379 0.0112307845 0.03737578 -0.23609807 0.22937872 -0.2231641 -0.14889559
0.08108391 0.026500182 -0.18249927 0.17317876 -0.07086559 -0.14147943 0.077105954 -0.29428822
0.12221779 0.1859109 -0.056238454 -0.22645168 0.15637563 -0.11528952 -0.0899167 0.021019457
-0.24610922 0.11198484 0.21321331 0.06111613 -0.21452121 0.12706879 -0.24487647 -0.09502985
-0.038480174 -0.13822599 0.16052173 -0.23693849 0.10521534 0.020839356 -0.052364223 0.025132999
-0.06165991 0.11422172 -0.12945527 -0.026296796 0.10294514 0.049227275 -0.26882297 0.18589379
-0.06532801 -0.2582314 0.025227882 -0.26906708 0.12269533 -0.30458462 0.099808864 0.12911436
-0.094594896 0.24619658 -0.042861402 0.025534533 0.06606789 -0.064371765 0.13231193 0.009500558
-0.16694334 0.10841436 -0.115964495 -0.07759764 0.015721384 -0.18956834 0.09799368 -0.22099894
0.14536205 -0.012948107 0.014935472 0.10221896 -0.0056293826 0.17132674 0.01603781 -0.16050309
0.053886455 0.055946138 -0.24170466 0.0220637 0.1238242 -0.024440128 -0.033299904 0.09414382
0.12672126 0.06158251 -0.07283882 -0.17618114 0.07560527 0.22812016 -0.025113422 -0.07987941
0.03932346 0.114864014 0.0924084 -0.122089 -0.27009425 0.14162096 0.23261346 0.08761746
-0.07897796 0.05849934 0.08250269 0.04859676 -0.074635565 -0.12231513 0.123062044 0.15053532
-0.09996093 -0.035961527 0.15654132 0.15959162 0.08140996 -0.053675145 -0.09792845 0.0310944
00000000: 1eb5 9f3d f630 2b3c cc96 463e 3877 e33d
00000010: 09fa 103d bf78 f53c 69be 42be 3088 26be
00000020: c9d3 12be 7ef3 fb3d 9048 b83d 76a4 023e
00000030: 387b 483d f2a6 54bd a4d1 2d3d 7a66 79be
00000040: 1267 bbbd 18f9 ccbd 8651 803d 490f 153d
00000050: 5033 2c3e f397 f63d 2efe ec3d 41cb 233d
00000060: 321b 1fbe f88c 96be 44ad f2bd 51e8 9bbd
00000070: 52d3 3f3e ed70 523c 6570 243e 8015 253e
00000080: 2998 5e3e 0203 71bc 71d8 b4bd 798b a7bd
00000090: bd74 e53d 8c95 923d b08f a33c 2722 33bd
000000a0: 8b2b 99bc 7e01 543e f800 14bd 3880 49be
000000b0: ce09 22be 8314 4dbe 24ab 89be 5423 39be
000000c0: 3538 c83d efb8 263e 2642 2cbe fd6e f13d
000000d0: d051 5d3e 9404 813e 82e5 4b3d e125 873d
000000e0: 5cc3 213e a5ec de3d 96da 76bd 16ad 203d
000000f0: 5c4e 36be 601a a8bd 2bda 21be b653 2abe
00000100: 14b3 ddbd dff5 75be 410c f63d 44ce 133e
00000110: 262c f1bb f39c 053e 5691 bf3c 6373 0b3e
00000120: 7ccb d4bd a531 0bbc 28f6 75bb 5b33 d5bd
00000130: a8c4 853c 1b32 ed3d dec9 8d3d 740f 423d
00000140: 6be6 a63d d8dd bebd 9f9d 8dbd 2238 633d
00000150: ec27 7abd c2b5 b93d 0805 353d 4038 053c
00000160: f521 703d c0a6 f83d 7784 74be 0fde a1bd
00000170: ca63 c63b b09f 82bd 8973 f43d f79f 213e
00000180: cbf2 d63d 11a0 bf3d 3db7 293d aa7a 103b
00000190: f874 bbbd 59b4 87be 4dc5 2bbd 02ca 623d
000001a0: 13ec c6bd 2739 373e db9c b9bd 23e5 0ebe
000001b0: 2248 80bd b3fa 11be c309 723d 76fd eabc
000001c0: 2986 30bc ac07 f33d a8b5 993d 1ada 4abd
000001d0: 40d9 203e 4410 7b3e 5685 5f3e 8bc4 c7bd
000001e0: 0801 b63d c6a3 fabd d088 d2bc 1038 99bb
000001f0: 2730 a6bd a127 6abe 1f7b c8bd 0ca9 93bd
00000200: d2c4 963a 1c9d edbc 975d 7d3b 82e8 a03d
00000210: fe22 31bd f0d1 0e3e bc6f d03d 1c83 793e
00000220: 9a0b 3f3e 63bf 15be 5301 383c 5917 193d
00000230: b1c3 71be 41e2 6a3e 2185 64be 1678 18be
00000240: 520f a63d e916 d93c 17e1 3abe c655 313e
00000250: fa21 91bd fcdf 10be bae9 9d3d f2ac 96be
00000260: 524d fa3d 6d5f 3e3e 4b5a 66bd f3e2 67be
00000270: ef20 203e e91c ecbd 3f26 b8bd ff30 ac3c
00000280: 0e04 7cbe 4f58 e53d 9754 5a3e e854 7a3d
00000290: 73ab 5bbe 521e 023e e6c0 7abe 039f c2bd
000002a0: 639d 1dbd 1d8b 0dbe cf5f 243e 01a0 72be
000002b0: 247b d73d 4cb7 aa3c de7b 56bd b8e3 cd3c
000002c0: 1a8f 7cbd 14ed e93d ec8f 04be 616c d7bc
000002d0: e7d4 d23d 8aa2 493d 2aa3 89be f15a 3e3e
000002e0: b1ca 85bd e836 84be b4aa ce3c 29c3 89be
000002f0: b047 fb3d 84f2 9bbe 9768 cc3d 8e36 043e
00000300: f8ba c1bd f51a 7c3e 708f 2fbd cc2d d13c
00000310: 9a4e 873d 58d5 83bd c77c 073e 3aa8 1b3c
00000320: 32f3 2abe 5908 de3d cb7e edbd 83eb 9ebd
00000330: 22ca 803c 341e 42be e9b0 c83d 8c4d 62be
00000340: cad9 143e 4c24 54bc e9b3 743c 2d58 d13d
00000350: af76 b8bb 4770 2f3e ba61 833c ec5a 24be
00000360: 0bb8 5c3d c727 653d 6d81 77be efbe b43c
00000370: 8b97 fd3d aa36 c8bc 7b65 08bd 7ace c03d
00000380: 38c3 013e f13d 7c3d 852c 95bd d468 34be
00000390: f0d6 9a3d 5598 693e aaba cdbc d197 a3bd
000003a0: a311 213d d33d eb3d 9d40 bd3d cc09 fabd
000003b0: cb49 8abe 1605 113e 3932 6e3e c870 b33d
000003c0: 32bf a1bd 019d 6f3d 2cf7 a83d 650d 473d
000003d0: 88da 98bd 5b80 fabd f407 fc3d ee25 1a3e
000003e0: 51b8 ccbd 654c 13bd 5e4c 203e fc6b 233e
000003f0: 44ba a63d 78da 5bbd b68e c8bd afb9 fe3c

conv2.bias f4 [8]
0.0016053437 0.07747981 0.17592768 -0.039128456 -0.038302645 -0.006964983 0.74133813 -0.0048453826
00000000: 656a d23a bcad 9e3d 6326 343e 2945 20bd
00000010: 3ce3 1cbd 833a e4bb 56c8 3d3f 04c6 9ebb

fc1.weight f4 [64, 200]
0.047083877 -0.024211349 0.063411474 -0.03452502 -0.06533656 -0.053263694 0.033340752 -0.009077526
-0.027671019 0.05071413 -0.011164599 0.043306112 -0.0112538235 -0.049159445 0.06493317 -0.036437042
0.051715232 0.061594218 -0.12437211 -0.05597822 0.019555226 -0.07622986 0.023482542 -0.027196867
-0.015132372 -0.046757992 0.03901492 -0.035913147 -0.028857116 -0.011338434 -0.039158303 -0.07110015
0.027990576 -0.05586579 0.048874237 0.058575552 -0.030147867 -0.015333106 -0.07452195 0.044016916
0.019222014 -0.016193729 0.051795967 0.025467835 0.07700007 -0.03889892 0.0059199007 -0.0069568786
0.035730295 -0.029132167 -0.049125433 0.013325923 -0.014068477 0.046454955 0.036203947 -0.04625634
0.036551822 0.045139987 0.03488635 -0.07093416 0.035346035 0.040348444 0.0073693222 0.03869889
-0.06172428 -0.025323613 0.074927606 0.0953751 0.049088832 -0.07157482 0.030890489 0.037747648
0.05359109 -0.016362602 0.07405041 -0.047205064 -0.096212216 -0.048525225 0.06721936 0.0630865
-0.09517487 -0.05109226 -0.009928548 0.024637567 0.08274421 -0.007881893 0.0054549975 0.04175792
-0.02920112 -0.12283069 0.018923918 0.013912305 0.032793604 0.0819434 -0.07998794 0.05667656
0.05019162 0.029966408 0.057791483 -0.016812982 -0.0176296 0.011196009 -0.023889229 0.06799968
0.034876935 0.026131213 -0.07862868 -0.013130708 -0.070557915 0.052243624 0.07515754 -0.015838996
0.046063352 -0.020643184 -0.12807474 -0.022026373 -0.044533543 0.026188629 0.057290643 -0.0025047667
-0.03772324 -0.0095468685 -0.05598122 -0.024487812 0.08426478 0.024047045 -0.06757508 0.006936899
0.044012677 0.05676406 0.011776065 -0.011597119 0.040280018 -0.020059306 0.041059155 -0.07635
-0.022573378 0.025675848 -0.0018822423 0.1074942 -0.040176857 -0.025993055 0.0002930259 -0.009559315
-0.036922824 -0.0071786055 0.07978452 0.0068943207 0.0843408 0.05846364 -0.025372483 0.030729571
0.037540995 0.07424177 0.03647879 -0.0018452673 0.048227336 0.07641692 0.010430992 0.06454789
0.010546229 -0.01902926 -0.045202103 0.005449099 -0.03400544 -0.05464737 -0.012166364 0.03859587
-0.007279094 -0.07062546 0.0077799205 -0.059573635 0.030721229 -0.0790151 -0.007930426 0.06065739
0.03652378 -0.014614004 -0.040370714 0.0119573735 0.036202118 -0.059270132 -0.044070117 0.016347324
0.011720326 0.06112686 -0.0493685 0.015069707 -0.05397085 0.0046150396 -0.014560768 0.039840154
-0.036350586 -0.05079367 -0.030387195 -0.045392703 0.06729662 0.025877407 -0.010643242 0.06555863
0.023897156 0.14751203 0.074198626 -0.100854754 -0.07994412 0.13143696 0.086643286 0.05939504
-0.053913828 0.039246798 -0.10237384 -0.10882592 -0.12364305 0.019554447 -0.08187859 -0.12457695
0.026503213 0.03968711 0.021573715 0.07860434 0.047606617 -0.051465303 0.08524149 0.03289438
0.024934145 -0.0033457433 0.029936282 0.0011429776 0.083225794 0.007831395 -0.12709501 -0.20327157
-0.08337973 0.17488228 -0.091198064 -0.023633623 -0.080749266 0.11748482 0.07701203 -0.07513758
0.09520164 -0.058101 -0.027382614 0.006321507 0.029786251 0.05344512 -0.0747124 0.010623828
-0.010047735 0.009304762 -0.0034554882 -0.04092825 0.056932196 0.008537694 0.045603696 -0.09753769
00000000: 06db 403d e156 c6bc e0dd 813d 1b6a 0dbd
00000010: 2dcf 85bd 082b 5abd 5090 083d e7b9 14bc
00000020: 55ae e2bc 9fb9 4f3d b9eb 36bc c061 313d
00000030: f561 38bc 6a5b 49bd affb 843d 023f 15bd
00000040: 5ad3 533d 384a 7c3d ceb6 febd 6b49 65bd
00000050: 4832 a03c 671e 9cbd 765e c03c f7cb debc
00000060: c5ed 77bc 4f85 3fbd 1cce 1f3d aa19 13bd
00000070: c265 ecbc d7c4 39bc 7564 20bd f59c 91bd
00000080: 7e4c e53c 87d3 64bd 5a30 483d ebec 6f3d
00000090: a9f8 f6bc b537 7bbc f79e 98bd 154b 343d
000000a0: 7c77 9d3c b6a8 84bc 0228 543d eca1 d03c
000000b0: 36b2 9d3d 7954 1fbd bafb c13b 87f6 e3bb
000000c0: ee59 123d 95a6 eebc c037 49bd f954 5a3c
000000d0: 787f 66bc 8d47 3e3d 974a 143d 4a77 3dbd
000000e0: 5db7 153d b5e4 383d fde4 0e3d ee45 91bd
000000f0: 01c7 103d 6944 253d 5b7a f13b ba82 1e3d
00000100: 99d2 7cbd 7773 cfbc a573 993d 0554 c33d
00000110: 5f11 493d d295 92bd 0d0e fd3c 479d 1a3d
00000120: 5582 5b3d dd0a 86bc bea7 973d 195a 41bd
00000130: e90a c5bd 63c2 46bd 4eaa 893d 7f33 813d
00000140: 0beb c2bd 1e46 51bd 59ab 22bc b9d4 c93c
00000150: cc75 a93d 0e23 01bc d6bf b23b 5a0a 2b3d
00000160: 3037 efbc a88e fbbd 5506 9b3c 70f0 633c
00000170: 9652 063d f1d1 a73d b8d0 a3bd ae25 683d
00000180: ba95 4d3d 1d7c f53c c3b6 6c3d 61bb 89bc
00000190: f36b 90bc 776f 373c 58b3 c3bc 6b43 8b3d
000001a0: 1edb 0e3d 2011 d63c 1308 a1bd 2e22 57bc
000001b0: ab80 90bd 69fd 553d 32ec 993d c8c0 81bc
000001c0: edac 3c3d e51b a9bc 0626 03be a770 b4bc
000001d0: ce68 36bd 8989 d63c 98a9 6a3d 0327 24bb
000001e0: af83 1abd 786a 1cbc 904c 65bd aa9a c8bc
000001f0: 0393 ac3d 4ffe c43c ce64 8abd ed4e e33b
00000200: a346 343d 6e81 683d 66f0 403c d801 3ebc
00000210: a9fc 243d 6a53 a4bc a52d 283d 645d 9cbd
00000220: ceeb b8bc 2856 d23c 92b5 f6ba eb25 dc3d
00000230: 7d90 24bd 63ef d4bc 45a1 9939 ac9e 1cbc
00000240: 633c 17bd 823a ebbb 1166 a33d c1e9 e13b
00000250: dfba ac3d 9277 6f3d f4d9 cfbc 95bc fb3c
00000260: 96c4 193d 120c 983d c96a 153d e5dc f1ba
00000270: 078a 453d 7980 9c3d c0e6 2a3c af31 843d
00000280: 17ca 2c3c 40e3 9bbc d725 39bd 5b8e b23b
00000290: 4a49 0bbd ecd5 5fbd 6e55 47bc b416 1e3d
000002a0: 7785 eebb 15a4 90bd b4ee fe3b 7c03 74bd
000002b0: 16ab fb3c abd2 a1bd 9eee 01bc e273 783d
000002c0: f699 153d 936f 6fbc c35b 25bd dce8 433c
000002d0: ac48 143d 3dc5 72bd de82 34bd d3ea 853c
000002e0: 9c06 403c 2960 7a3d a036 4abd efe6 763c
000002f0: 8a10 5dbd c239 973b 4a90 6ebc 6e2f 233d
00000300: 5ae4 14bd 060d 50bd 91ee f8bc b3ed 39bd
00000310: cfd2 893d dbfc d33c fe60 2ebc 9a43 863d
00000320: f8c3 c33c 650d 173e 73f5 973d f08c cebd
00000330: beb9 a3bd 6997 063e 0972 b13d 3748 733d
00000340: bfd4 5cbd 40c1 203d 60a9 d1bd 20e0 debd
00000350: 9138 fdbd a630 a03c f6af a7bd 3322 ffbd
00000360: 441d d93c f38e 223d 5cbb b03c 50fb a03d
00000370: 28ff 423d 48cd 52bd 1793 ae3d 42bc 063d
00000380: b142 cc3c 4244 5bbb ef3c f53c f7cf 953a
00000390: 4972 aa3d 404f 003c 3225 02be 6c26 50be
000003a0: fec2 aabd 5714 333e 0dc6 babd 4d9b c1bc
000003b0: df5f a5bd e29b f03d 7cb8 9d3d bbe1 99bd
000003c0: 14f9 c23d 50fb 6dbd 8151 e0bc a524 cf3b
000003d0: 4c02 f43c 45e9 5a3d d102 99bd 900f 2e3c
000003e0: 419f 24bc 0073 183c 7975 62bb 61a4 27bd
000003f0: bc31 693d afe1 0b3c f1ca 3a3d d7c1 c7bd

fc1.bias f4 [64]
0.064999774 0.20217653 0.116654016 0.22785 0.33055118 0.4519134 0.2653432 0.32233146
0.29645163 0.18035679 0.25479597 0.16602339 -0.10200245 0.25058243 0.008385433 0.2294191
0.3200609 0.28819656 0.20815036 -0.0720027 0.2117778 0.19082382 0.24738471 0.09108628
0.032578357 0.12921557 0.26578405 0.18590343 0.120011896 0.032171514 0.14649355 0.24562527
0.099146135 0.057063628 0.42128125 0.14039405 0.04336593 0.10176848 0.12870847 0.24553093
0.083962806 0.008102256 0.3320762 0.009860736 0.16472852 0.01751504 0.040113974 0.10425252
0.18254155 0.25986066 0.43983224 0.011376796 0.26725987 0.10466852 0.2805494 -0.026015058
0.21125801 -0.05087857 0.13859771 0.107741885 0.3157835 0.21032012 0.021570195 0.035808016
00000000: 9a1e 853d 5d07 4f3e 4de8 ee3d 8351 693e
00000010: 013e a93e 3161 e73e 10db 873e a108 a53e
00000020: 82c8 973e 73af 383e 9e74 823e 0902 2a3e
00000030: a9e6 d0bd 574c 803e 0e63 093c d7ec 6a3e
00000040: 06df a33e 808e 933e 5e25 553e 2776 93bd
00000050: 48dc 583e 5267 433e 6b52 7d3e 728b ba3d
00000060: e270 053d 1651 043e d914 883e 785d 3e3e
00000070: ccc8 f53d 47c6 033d 6802 163e 3185 7b3e
00000080: 210d cb3d 8dbb 693d 2db2 d73e 75c3 0f3e
00000090: 79a0 313d fe6b d03d 27cc 033e 766c 7b3e
000000a0: b1f4 ab3d 53bf 043c e405 aa3e ed8e 213c
000000b0: 98ae 283e b37b 8f3c 8d4e 243d 5882 d53d
000000c0: 2cec 3a3e 750c 853e b131 e13e be65 3a3c
000000d0: 49d6 883e 735c d63d 2ca4 8f3e 881d d5bc
000000e0: 0554 583e 0c66 50bd 8fec 0d3e c7a7 dc3d
000000f0: 60ae a13e 285e 573e fab3 b03c 6dab 123d

fc2.weight f4 [10, 64]
0.10194013 -0.14800797 0.10109917 -0.21303283 -0.35545978 -0.14021333 -0.027413404 -0.04427425
0.24103494 0.08328522 0.17560463 0.169576 0.0067648445 0.056209095 -0.049019765 0.083291955
0.04725263 -0.23767015 -0.117603876 -0.09840639 0.15803733 0.05905899 -0.12850592 -0.17311722
-0.05325984 0.033392236 0.0054845675 0.1423273 -0.16770801 -0.05816159 0.07051454 -0.18994564
-0.08183078 0.113798596 -0.43099737 -0.21417134 0.015923668 0.092691004 0.14615086 -0.11481579
-0.03038218 -0.13856296 0.29954374 0.19299012 0.06328128 -0.060506128 0.058173317 -0.2498728
-0.11175547 -0.039611574 0.02568862 -0.06541424 -0.28913748 -0.18134998 -0.09734909 -0.12701808
-0.19430599 0.0221565 -0.12415761 0.15246095 -0.19183388 0.07364384 -0.15620035 -0.16038677
0.0033908766 0.18824099 -0.07913709 0.011107999 0.44703835 0.102605306 0.10146351 -0.25491044
0.30018723 0.042876758 -0.013730657 -0.017336363 -0.18796465 -0.04280519 0.13159731 0.15959595
0.11033852 0.06648432 0.16519761 -0.022757452 -0.08780859 -0.038585693 -0.17667697 0.2910138
-0.1314255 0.023714025 0.13915779 -0.37222704 -0.26050967 0.09099866 -0.25736573 0.29965293
-0.017174998 -0.09325295 0.17657915 -0.20053989 -0.1690443 0.00495438 -0.25916457 0.114595234
0.060469773 -0.030508285 0.01578142 -0.33246717 -0.27001905 -0.0986332 -0.2581897 0.0021469502
-0.10534306 0.029474469 0.15135592 0.044404544 0.02122154 0.14974912 0.1733349 -0.12888525
-0.1624301 -0.059773292 -0.03503942 0.022996688 0.113533065 -0.14957859 -0.094044045 -0.04783335
0.052705444 0.109838046 -0.2518761 -0.038810987 -0.052126717 -0.08923408 0.055880625 -0.008891037
-0.1966312 0.063804105 0.11395748 -0.08692227 0.09317772 -0.07922638 -0.06974108 0.1253259
0.076050356 -0.17100199 -0.23269945 0.10266483 0.14018966 -0.16500625 0.05810837 0.11440631
0.060678802 0.21978043 -0.09487315 -0.31557158 -0.044503763 -0.1645447 0.029212803 0.045411702
-0.045628008 0.09576572 -0.28120318 -0.018920768 0.061729435 0.19641028 -0.023111876 -0.21130115
0.052433293 0.059841875 -0.02087355 -0.036387503 0.06530009 -0.052438613 0.036918316 -0.03651518
0.059669316 0.19211374 -0.37635314 -0.1279742 -0.13184571 0.010517713 0.09551433 0.04725811
-0.0586775 0.16123518 0.04300938 0.08939593 0.18244247 -0.03853196 0.0395651 -0.05444594
0.04526802 0.035019323 -0.037775856 0.008862561 -0.14575587 -0.2236687 -0.096071854 -0.12507905
-0.17161366 -0.10185126 0.10230905 -0.08720338 0.07909525 0.17328061 -0.1499202 0.1403855
-0.12043499 0.08866979 -0.04883144 0.18841743 -0.1768384 -0.28525552 -0.041298144 0.02013385
-0.044777445 -0.08012936 -0.19522499 0.009833847 -0.005371272 0.00037203947 -0.14750424 -0.112733155
-0.14369686 0.022191994 0.0027095913 -0.02843992 -0.009198836 -0.055796742 -0.03326902 0.22797485
0.266323 0.0100156795 -0.08316818 -0.009135973 -0.08155063 0.21516787 0.095664196 0.20825031
-0.024033006 -0.036456715 -0.22249389 0.0487653 -0.077997155 -0.18634447 -0.20939746 0.010222784
-0.09591753 -0.010790293 -0.08768294 -0.022100857 -0.15180105 -0.057548966 -0.09550001 -0.04525832
00000000: fdc5 d03d 678f 17be 150d cf3d 4725 5abe
00000010: d3fe b5be 1594 0fbe 1392 e0bc ea58 35bd
00000020: ddd1 763e 7191 aa3d b3d1 333e 55a5 2d3e
00000030: a1ab dd3b 823b 663d f3c8 48bd f994 aa3d
00000040: f98b 413d ce5f 73be 4dda f0bd 4a89 c9bd
00000050: 8ad4 213e d7e7 713d 0e97 03be a445 31be
00000060: fd26 5abd 4cc6 083d e3b7 b33b 3fbe 113e
00000070: a6bb 2bbe d93a 6ebd ed69 903d 1c81 42be
00000080: e596 a7bd 3d0f e93d b0ab dcbe bb4f 5bbe
00000090: 5a72 823c c8d4 bd3d 92a8 153e 8a24 ebbd
000000a0: 0de4 f8bc 73e3 0dbe cc5d 993e 349f 453e
000000b0: 9e99 813d 46d5 77bd 2547 6e3d a8de 7fbe
000000c0: 0de0 e4bd bf3f 22bd f170 d23c e7f7 85bd
000000d0: d409 94be cfb3 39be f65e c7bd 0711 02be
000000e0: 26f8 46be 8c81 b53c 5846 febd b91e 1c3e
000000f0: 1a70 44be 95d2 963d fcf2 1fbe 6e3c 24be
00000100: 7839 5e3b 3fc2 403e a012 a2bd 53fe 353c
00000110: 36e2 e43e bb22 d23d 1acc cf3d 9f83 82be
00000120: 24b2 993e 8a9f 2f3d 8df6 60bc fd04 8ebc
00000130: ce79 40be 7f54 2fbd 72c1 063e 1f6d 233e
00000140: 29f9 e13d ee28 883d 9029 293e d66d babc
00000150: fdd4 b3bd 080c 1ebd cfea 34be c3ff 943e
00000160: 6894 06be ea43 c23c 617f 0e3e 8b94 bebe
00000170: 8661 85be 815d ba3d 71c5 83be 1c6c 993e
00000180: 95b2 8cbc 67fb bebd 2ad1 343e 545a 4dbe
00000190: f319 2dbe 5a58 a23b 38b1 84be e8b0 ea3d
000001a0: 27af 773d 83ec f9bc 0948 813c 2339 aabe
000001b0: f03f 8abe 3400 cabd 7131 84be d9b3 0c3b
000001c0: 1abe d7bd 7174 f13c 0cfd 1a3e 8ae1 353d
000001d0: ccd8 ad3c d557 193e b47e 313e 7ffa 03be
000001e0: 1354 26be d7d4 74bd 7f85 0fbd 8d63 bc3c
000001f0: 0684 e83d 212b 19be 2a9a c0bd e7ec 43bd
00000200: aae1 573d c5f2 e03d e7f5 80be 45f8 1ebd
00000210: d382 55bd 5bc0 b6bd 15e3 643d b6ab 11bc
00000220: b059 49be baab 823d 8a62 e93d 4e04 b2bd
00000230: f6d3 be3d 7141 a2bd 69d4 8ebd 6f55 003e
00000240: 4ac0 9b3d 251b 2fbe c448 6ebe f041 d23d
00000250: e18d 0f3e 66f7 28be 0b03 6e3d db4d ea3d
00000260: 568a 783d 1f0e 613e db4c c2bd 9992 a1be
00000270: 9449 36bd 687e 28be b04f ef3c 9f01 3a3d
00000280: 6fe4 3abd d120 c43d ddf9 8fbe baff 9abc
00000290: 01d8 7c3d c71f 493e 1e55 bdbc 545f 58be
000002a0: 4bc4 563d c11c 753d 02ff aabc 100b 15bd
000002b0: 0ebc 853d dfc9 56bd a937 173d f190 15bd
000002c0: d067 743d 77b9 443e 5cb1 c0be ab0b 03be
000002d0: 9002 07be 7c52 2c3c 049d c33d b891 413d
000002e0: d157 70bd d61a 253e 9b2a 303d 3715 b73d
000002f0: 33d2 3a3e b0d3 1dbd 040f 223d b502 5fbd
00000300: f66a 393d 6c70 0f3d dbba 1abd 4634 113c
00000310: 0741 15be 6809 65be 52c1 c4bd b914 00be
00000320: 7ebb 2fbe 6597 d0bd 6887 d13d b097 b2bd
00000330: b1fc a13d 7970 313e ae84 19be 37c1 0f3e
00000340: 9fa6 f6bd 8298 b53d 7a03 48bd 80f0 403e
00000350: 2015 35be 030d 92be 3e28 29bd beef a43c
00000360: 8e68 37bd dd1a a4bd 0fe9 47be 251e 213c
00000370: 7f01 b0bb 4b0e c339 5a0b 17be a4e0 e6bd
00000380: 4525 13be fccb b53c 6693 313b d6fa e8bc
00000390: b7b6 16bc 208b 64bd 1945 08bd 3d72 693e
000003a0: 7d5b 883e ce18 243c 1454 aabd 0caf 15bc
000003b0: 0404 a7bd f754 5c3e 97eb c33d 923f 553e
000003c0: dee0 c4bc a353 15bd 70d5 63be 20be 473d
000003d0: f9bc 9fbd 16d1 3ebe 4a6c 56be 777d 273c
000003e0: 6970 c4bd c5c9 30bc 1d93 b3bd db0c b5bc
000003f0: bc71 1bbe 77b8 6bbd 8295 c3bd ca60 39bd

fc2.bias f4 [10]
0.14786196 0.11354414 -0.17726055 0.02839719 0.029737374 -0.14595181 0.006446272 -0.02447008
0.0018667243 0.04443456
00000000: 2069 173e d489 e83d ca83 35be 39a1 e83c
00000010: cb9b f33c 6474 15be 403b d33b 7a75 c8bc
00000020: e0ac f43a 0301 363d
